…
Raw Data Num: 1133
Data Num after shifting: 11410
Past Pandemic Training Size:11410
>>>>>>>>>> Processing Self-tune Pandemic Data >>>>>>>>>>
Raw Data Num: 292
Data Num after masking: 13260
Self-Tune Training Size:13260
Past Pandemic + Self-Tune Training Size:24670
>>>>>>>>>> Processing Target Pandemic Data >>>>>>>>>>
Raw Data Num: 292
Data Num after shifting: 260
Validation Length:258
The smallest set has 1 curves
The largest set has 341 curves
TrainingModule(
  (model): pandemic_early_warning_model(
    (parameter_prediction_layer): parameter_prediction_layer(
      (encoding_layer): ResNet(
        (conv1): Conv1d(1, 64, kernel_size=(7,), stride=(2,), padding=(3,), bias=False)
        (relu): LeakyReLU(negative_slope=0.01)
        (max_pool): MaxPool1d(kernel_size=3, stride=2, padding=1, dilation=1, ceil_mode=False)
        (layer1): Sequential(
          (0): Bottleneck(
            (conv1): Conv1d(64, 64, kernel_size=(1,), stride=(1,))
            (conv2): Conv1d(64, 64, kernel_size=(3,), stride=(1,), padding=(1,))
            (conv3): Conv1d(64, 256, kernel_size=(1,), stride=(1,))
            (i_downsample): Sequential(
              (0): Conv1d(64, 256, kernel_size=(1,), stride=(1,))
            )
            (relu): LeakyReLU(negative_slope=0.01)
          )
          (1): Bottleneck(
            (conv1): Conv1d(256, 64, kernel_size=(1,), stride=(1,))
            (conv2): Conv1d(64, 64, kernel_size=(3,), stride=(1,), padding=(1,))
            (conv3): Conv1d(64, 256, kernel_size=(1,), stride=(1,))
            (relu): LeakyReLU(negative_slope=0.01)
          )
          (2): Bottleneck(
            (conv1): Conv1d(256, 64, kernel_size=(1,), stride=(1,))
            (conv2): Conv1d(64, 64, kernel_size=(3,), stride=(1,), padding=(1,))
            (conv3): Conv1d(64, 256, kernel_size=(1,), stride=(1,))
            (relu): LeakyReLU(negative_slope=0.01)
          )
        )
        (layer2): Sequential(
          (0): Bottleneck(
            (conv1): Conv1d(256, 128, kernel_size=(1,), stride=(1,))
            (conv2): Conv1d(128, 128, kernel_size=(3,), stride=(2,), padding=(1,))
            (conv3): Conv1d(128, 512, kernel_size=(1,), stride=(1,))
            (i_downsample): Sequential(
              (0): Conv1d(256, 512, kernel_size=(1,), stride=(2,))
            )
            (relu): LeakyReLU(negative_slope=0.01)
          )
          (1): Bottleneck(
            (conv1): Conv1d(512, 128, kernel_size=(1,), stride=(1,))
            (conv2): Conv1d(128, 128, kernel_size=(3,), stride=(1,), padding=(1,))
            (conv3): Conv1d(128, 512, kernel_size=(1,), stride=(1,))
            (relu): LeakyReLU(negative_slope=0.01)
          )
          (2): Bottleneck(
            (conv1): Conv1d(512, 128, kernel_size=(1,), stride=(1,))
            (conv2): Conv1d(128, 128, kernel_size=(3,), stride=(1,), padding=(1,))
            (conv3): Conv1d(128, 512, kernel_size=(1,), stride=(1,))
            (relu): LeakyReLU(negative_slope=0.01)
          )
          (3): Bottleneck(
            (conv1): Conv1d(512, 128, kernel_size=(1,), stride=(1,))
            (conv2): Conv1d(128, 128, kernel_size=(3,), stride=(1,), padding=(1,))
            (conv3): Conv1d(128, 512, kernel_size=(1,), stride=(1,))
            (relu): LeakyReLU(negative_slope=0.01)
          )
        )
        (layer3): Sequential(
          (0): Bottleneck(
            (conv1): Conv1d(512, 256, kernel_size=(1,), stride=(1,))
            (conv2): Conv1d(256, 256, kernel_size=(3,), stride=(2,), padding=(1,))
            (conv3): Conv1d(256, 1024, kernel_size=(1,), stride=(1,))
            (i_downsample): Sequential(
              (0): Conv1d(512, 1024, kernel_size=(1,), stride=(2,))
            )
            (relu): LeakyReLU(negative_slope=0.01)
          )
          (1): Bottleneck(
            (conv1): Conv1d(1024, 256, kernel_size=(1,), stride=(1,))
            (conv2): Conv1d(256, 256, kernel_size=(3,), stride=(1,), padding=(1,))
            (conv3): Conv1d(256, 1024, kernel_size=(1,), stride=(1,))
            (relu): LeakyReLU(negative_slope=0.01)
          )
          (2): Bottleneck(
            (conv1): Conv1d(1024, 256, kernel_size=(1,), stride=(1,))
            (conv2): Conv1d(256, 256, kernel_size=(3,), stride=(1,), padding=(1,))
            (conv3): Conv1d(256, 1024, kernel_size=(1,), stride=(1,))
            (relu): LeakyReLU(negative_slope=0.01)
          )
          (3): Bottleneck(
            (conv1): Conv1d(1024, 256, kernel_size=(1,), stride=(1,))
            (conv2): Conv1d(256, 256, kernel_size=(3,), stride=(1,), padding=(1,))
            (conv3): Conv1d(256, 1024, kernel_size=(1,), stride=(1,))
            (relu): LeakyReLU(negative_slope=0.01)
          )
          (4): Bottleneck(
            (conv1): Conv1d(1024, 256, kernel_size=(1,), stride=(1,))
            (conv2): Conv1d(256, 256, kernel_size=(3,), stride=(1,), padding=(1,))
            (conv3): Conv1d(256, 1024, kernel_size=(1,), stride=(1,))
            (relu): LeakyReLU(negative_slope=0.01)
          )
          (5): Bottleneck(
            (conv1): Conv1d(1024, 256, kernel_size=(1,), stride=(1,))
            (conv2): Conv1d(256, 256, kernel_size=(3,), stride=(1,), padding=(1,))
            (conv3): Conv1d(256, 1024, kernel_size=(1,), stride=(1,))
            (relu): LeakyReLU(negative_slope=0.01)
          )
        )
        (layer4): Sequential(
          (0): Bottleneck(
            (conv1): Conv1d(1024, 512, kernel_size=(1,), stride=(1,))
            (conv2): Conv1d(512, 512, kernel_size=(3,), stride=(2,), padding=(1,))
            (conv3): Conv1d(512, 2048, kernel_size=(1,), stride=(1,))
            (i_downsample): Sequential(
              (0): Conv1d(1024, 2048, kernel_size=(1,), stride=(2,))
            )
            (relu): LeakyReLU(negative_slope=0.01)
          )
          (1): Bottleneck(
            (conv1): Conv1d(2048, 512, kernel_size=(1,), stride=(1,))
            (conv2): Conv1d(512, 512, kernel_size=(3,), stride=(1,), padding=(1,))
            (conv3): Conv1d(512, 2048, kernel_size=(1,), stride=(1,))
            (relu): LeakyReLU(negative_slope=0.01)
          )
          (2): Bottleneck(
            (conv1): Conv1d(2048, 512, kernel_size=(1,), stride=(1,))
            (conv2): Conv1d(512, 512, kernel_size=(3,), stride=(1,), padding=(1,))
            (conv3): Conv1d(512, 2048, kernel_size=(1,), stride=(1,))
            (relu): LeakyReLU(negative_slope=0.01)
          )
        )
        (avgpool): AdaptiveAvgPool1d(output_size=1)
        (meta_data_layer1): Linear(in_features=40, out_features=64, bias=True)
        (meta_data_layer2): Linear(in_features=64, out_features=128, bias=True)
        (fc1): Linear(in_features=2176, out_features=512, bias=True)
        (fc2): Linear(in_features=512, out_features=256, bias=True)
        (fc3): Linear(in_features=256, out_features=64, bias=True)
        (fc4): Linear(in_features=64, out_features=12, bias=True)
      )
    )
    (range_restriction_function): Sigmoid()
    (delphi_layer): delphi_layer()
  )
  (loss_fn): Combined_Loss()
)
Training: |          | 0/? [00:00<?, ?it/s]Training:   0%|          | 0/341 [00:00<?, ?it/s]Epoch 0:   0%|          | 0/341 [00:00<?, ?it/s] Train Loss: 1496146.375
Epoch 0:   0%|          | 1/341 [00:09<55:34,  0.10it/s]Epoch 0:   0%|          | 1/341 [00:09<55:34,  0.10it/s, v_num=20]Train Loss: 1494300.75
…
